…
</div>

<div class=3D"output_wrapper">
<div class=3D"output">


<div class=3D"output_area">

    <div class=3D"prompt"></div>


<div class=3D"output_subarea output_stream output_stdout output_text">
<pre>Model: "sequential"
_________________________________________________________________
Layer (type)                 Output Shape              Param #  =20
=3D=3D=3D=3D=3D=3D=3D=3D=3D=3D=3D=3D=3D=3D=3D=3D=3D=3D=3D=3D=3D=3D=3D=3D=3D=
=3D=3D=3D=3D=3D=3D=3D=3D=3D=3D=3D=3D=3D=3D=3D=3D=3D=3D=3D=3D=3D=3D=3D=3D=3D=
=3D=3D=3D=3D=3D=3D=3D=3D=3D=3D=3D=3D=3D=3D=3D
conv2d (Conv2D)              (None, 144, 144, 32)      1600     =20
_________________________________________________________________
batch_normalization (BatchNo (None, 144, 144, 32)      128      =20
_________________________________________________________________
activation (Activation)      (None, 144, 144, 32)      0        =20
_________________________________________________________________
max_pooling2d (MaxPooling2D) (None, 48, 48, 32)        0        =20
_________________________________________________________________
conv2d_1 (Conv2D)            (None, 48, 48, 64)        51264    =20
_________________________________________________________________
batch_normalization_1 (Batch (None, 48, 48, 64)        256      =20
_________________________________________________________________
activation_1 (Activation)    (None, 48, 48, 64)        0        =20
_________________________________________________________________
max_pooling2d_1 (MaxPooling2 (None, 16, 16, 64)        0        =20
_________________________________________________________________
flatten (Flatten)            (None, 16384)             0        =20
_________________________________________________________________
dense (Dense)                (None, 64)                1048640  =20
_________________________________________________________________
dense_1 (Dense)              (None, 3)                 195      =20
=3D=3D=3D=3D=3D=3D=3D=3D=3D=3D=3D=3D=3D=3D=3D=3D=3D=3D=3D=3D=3D=3D=3D=3D=3D=
=3D=3D=3D=3D=3D=3D=3D=3D=3D=3D=3D=3D=3D=3D=3D=3D=3D=3D=3D=3D=3D=3D=3D=3D=3D=
=3D=3D=3D=3D=3D=3D=3D=3D=3D=3D=3D=3D=3D=3D=3D
Total params: 1,102,083
Trainable params: 1,101,891
Non-trainable params: 192
_________________________________________________________________
</pre>
</div>
</div>

<div class=3D"output_area">
…
